…
        "tod_embedding_dim": 24,
        "dow_embedding_dim": 7,
        "node_embedding_dim": 64,
        "learner_hidden_dim": 128,
        "z_dim": 64,
        "num_layers": 2,
        "seq2seq": true,
        "cheb_k": 3,
        "add_01_adj": true,
        "add_meta_adj": true,
        "add_meta_att": false
    }
}
==========================================================================================
Layer (type:depth-idx)                   Output Shape              Param #
==========================================================================================
STMetaAGCRU                              [64, 12, 207, 1]          26,496
├─Sequential: 1-1                        [64, 207, 64]             --
│    └─Linear: 2-1                       [64, 207, 32]             416
│    └─Tanh: 2-2                         [64, 207, 32]             --
│    └─Linear: 2-3                       [64, 207, 32]             1,056
│    └─Tanh: 2-4                         [64, 207, 32]             --
│    └─Linear: 2-5                       [64, 207, 64]             2,112
├─Sequential: 1-2                        [64, 207, 64]             --
│    └─Linear: 2-6                       [64, 207, 32]             416
│    └─Tanh: 2-7                         [64, 207, 32]             --
│    └─Linear: 2-8                       [64, 207, 32]             1,056
│    └─Tanh: 2-9                         [64, 207, 32]             --
│    └─Linear: 2-10                      [64, 207, 64]             2,112
├─Sequential: 1-3                        [64, 207, 30]             --
│    └─Linear: 2-11                      [64, 207, 128]            20,480
│    └─ReLU: 2-12                        [64, 207, 128]            --
│    └─Linear: 2-13                      [64, 207, 30]             3,870
├─ModuleList: 1-4                        --                        --
│    └─STMetaGCRUEncoder: 2-14           [64, 12, 207, 32]         --
│    │    └─STMetaGCRUCell: 3-1          [64, 207, 32]             22,272
│    │    └─STMetaGCRUCell: 3-2          [64, 207, 32]             (recursive)
│    │    └─STMetaGCRUCell: 3-3          [64, 207, 32]             (recursive)
│    │    └─STMetaGCRUCell: 3-4          [64, 207, 32]             (recursive)
│    │    └─STMetaGCRUCell: 3-5          [64, 207, 32]             (recursive)
│    │    └─STMetaGCRUCell: 3-6          [64, 207, 32]             (recursive)
│    │    └─STMetaGCRUCell: 3-7          [64, 207, 32]             (recursive)
…
│    │    └─STMetaGCRUCell: 3-18         [64, 207, 32]             (recursive)
│    │    └─STMetaGCRUCell: 3-19         [64, 207, 32]             (recursive)
│    │    └─STMetaGCRUCell: 3-20         [64, 207, 32]             (recursive)
│    │    └─STMetaGCRUCell: 3-21         [64, 207, 32]             (recursive)
│    │    └─STMetaGCRUCell: 3-22         [64, 207, 32]             (recursive)
│    │    └─STMetaGCRUCell: 3-23         [64, 207, 32]             (recursive)
│    │    └─STMetaGCRUCell: 3-24         [64, 207, 32]             (recursive)
├─ModuleList: 1-27                       --                        (recursive)
│    └─STMetaGCRUCell: 2-16              [64, 207, 32]             --
│    │    └─STMetaGCN: 3-25              [64, 207, 64]             14,848
│    │    └─STMetaGCN: 3-26              [64, 207, 32]             7,424
│    └─STMetaGCRUCell: 2-17              [64, 207, 32]             --
│    │    └─STMetaGCN: 3-27              [64, 207, 64]             28,736
│    │    └─STMetaGCN: 3-28              [64, 207, 32]             14,368
├─Sequential: 1-6                        [64, 207, 1]              --
│    └─Linear: 2-18                      [64, 207, 1]              33
├─ModuleList: 1-27                       --                        (recursive)
│    └─STMetaGCRUCell: 2-19              [64, 207, 32]             (recursive)
│    │    └─STMetaGCN: 3-29              [64, 207, 64]             (recursive)
│    │    └─STMetaGCN: 3-30              [64, 207, 32]             (recursive)
│    └─STMetaGCRUCell: 2-20              [64, 207, 32]             (recursive)
│    │    └─STMetaGCN: 3-31              [64, 207, 64]             (recursive)
…
