…
        "aptinit": null,
        "node_emb_file": "../data/METRLA/spatial_embeddings.npz",
        "tod_embedding_dim": 24,
        "dow_embedding_dim": 7,
        "node_embedding_dim": 64,
        "learner_hidden_dim": 128,
        "z_dim": 64,
        "add_meta_adj": true,
        "add_meta_att": false
    }
}
==========================================================================================
Layer (type:depth-idx)                   Output Shape              Param #
==========================================================================================
GWNET                                    [64, 12, 207, 1]          39,084
├─Sequential: 1-1                        [64, 207, 64]             --
│    └─Linear: 2-1                       [64, 207, 32]             416
│    └─Tanh: 2-2                         [64, 207, 32]             --
│    └─Linear: 2-3                       [64, 207, 32]             1,056
│    └─Tanh: 2-4                         [64, 207, 32]             --
│    └─Linear: 2-5                       [64, 207, 64]             2,112
├─Sequential: 1-2                        [64, 207, 64]             --
│    └─Linear: 2-6                       [64, 207, 32]             416
│    └─Tanh: 2-7                         [64, 207, 32]             --
│    └─Linear: 2-8                       [64, 207, 32]             1,056
│    └─Tanh: 2-9                         [64, 207, 32]             --
│    └─Linear: 2-10                      [64, 207, 64]             2,112
├─Sequential: 1-3                        [64, 207, 30]             --
│    └─Linear: 2-11                      [64, 207, 128]            20,480
│    └─ReLU: 2-12                        [64, 207, 128]            --
│    └─Linear: 2-13                      [64, 207, 30]             3,870
├─Conv2d: 1-4                            [64, 32, 207, 13]         64
├─ModuleList: 1-40                       --                        (recursive)
│    └─Conv2d: 2-14                      [64, 32, 207, 12]         2,080
├─ModuleList: 1-41                       --                        (recursive)
│    └─Conv2d: 2-15                      [64, 32, 207, 12]         2,080
├─ModuleList: 1-42                       --                        (recursive)
│    └─Conv2d: 2-16                      [64, 256, 207, 12]        8,448
├─ModuleList: 1-43                       --                        (recursive)
│    └─gcn: 2-17                         [64, 32, 207, 12]         --
│    │    └─nconv: 3-1                   [64, 32, 207, 12]         --
│    │    └─nconv: 3-2                   [64, 32, 207, 12]         --
│    │    └─nconv: 3-3                   [64, 32, 207, 12]         --
│    │    └─nconv: 3-4                   [64, 32, 207, 12]         --
│    │    └─nconv: 3-5                   [64, 32, 207, 12]         --
│    │    └─nconv: 3-6                   [64, 32, 207, 12]         --
│    │    └─linear: 3-7                  [64, 32, 207, 12]         7,200
├─ModuleList: 1-44                       --                        (recursive)
│    └─BatchNorm2d: 2-18                 [64, 32, 207, 12]         64
├─ModuleList: 1-40                       --                        (recursive)
│    └─Conv2d: 2-19                      [64, 32, 207, 10]         2,080
├─ModuleList: 1-41                       --                        (recursive)
│    └─Conv2d: 2-20                      [64, 32, 207, 10]         2,080
├─ModuleList: 1-42                       --                        (recursive)
│    └─Conv2d: 2-21                      [64, 256, 207, 10]        8,448
├─ModuleList: 1-43                       --                        (recursive)
│    └─gcn: 2-22                         [64, 32, 207, 10]         --
│    │    └─nconv: 3-8                   [64, 32, 207, 10]         --
│    │    └─nconv: 3-9                   [64, 32, 207, 10]         --
│    │    └─nconv: 3-10                  [64, 32, 207, 10]         --
│    │    └─nconv: 3-11                  [64, 32, 207, 10]         --
│    │    └─nconv: 3-12                  [64, 32, 207, 10]         --
│    │    └─nconv: 3-13                  [64, 32, 207, 10]         --
│    │    └─linear: 3-14                 [64, 32, 207, 10]         7,200
├─ModuleList: 1-44                       --                        (recursive)
│    └─BatchNorm2d: 2-23                 [64, 32, 207, 10]         64
├─ModuleList: 1-40                       --                        (recursive)
│    └─Conv2d: 2-24                      [64, 32, 207, 9]          2,080
├─ModuleList: 1-41                       --                        (recursive)
│    └─Conv2d: 2-25                      [64, 32, 207, 9]          2,080
├─ModuleList: 1-42                       --                        (recursive)
│    └─Conv2d: 2-26                      [64, 256, 207, 9]         8,448
├─ModuleList: 1-43                       --                        (recursive)
│    └─gcn: 2-27                         [64, 32, 207, 9]          --
│    │    └─nconv: 3-15                  [64, 32, 207, 9]          --
│    │    └─nconv: 3-16                  [64, 32, 207, 9]          --
│    │    └─nconv: 3-17                  [64, 32, 207, 9]          --
│    │    └─nconv: 3-18                  [64, 32, 207, 9]          --
│    │    └─nconv: 3-19                  [64, 32, 207, 9]          --
│    │    └─nconv: 3-20                  [64, 32, 207, 9]          --
│    │    └─linear: 3-21                 [64, 32, 207, 9]          7,200
├─ModuleList: 1-44                       --                        (recursive)
│    └─BatchNorm2d: 2-28                 [64, 32, 207, 9]          64
├─ModuleList: 1-40                       --                        (recursive)
│    └─Conv2d: 2-29                      [64, 32, 207, 7]          2,080
├─ModuleList: 1-41                       --                        (recursive)
│    └─Conv2d: 2-30                      [64, 32, 207, 7]          2,080
├─ModuleList: 1-42                       --                        (recursive)
│    └─Conv2d: 2-31                      [64, 256, 207, 7]         8,448
├─ModuleList: 1-43                       --                        (recursive)
│    └─gcn: 2-32                         [64, 32, 207, 7]          --
│    │    └─nconv: 3-22                  [64, 32, 207, 7]          --
│    │    └─nconv: 3-23                  [64, 32, 207, 7]          --
│    │    └─nconv: 3-24                  [64, 32, 207, 7]          --
│    │    └─nconv: 3-25                  [64, 32, 207, 7]          --
│    │    └─nconv: 3-26                  [64, 32, 207, 7]          --
│    │    └─nconv: 3-27                  [64, 32, 207, 7]          --
│    │    └─linear: 3-28                 [64, 32, 207, 7]          7,200
├─ModuleList: 1-44                       --                        (recursive)
│    └─BatchNorm2d: 2-33                 [64, 32, 207, 7]          64
├─ModuleList: 1-40                       --                        (recursive)
│    └─Conv2d: 2-34                      [64, 32, 207, 6]          2,080
├─ModuleList: 1-41                       --                        (recursive)
│    └─Conv2d: 2-35                      [64, 32, 207, 6]          2,080
├─ModuleList: 1-42                       --                        (recursive)
│    └─Conv2d: 2-36                      [64, 256, 207, 6]         8,448
├─ModuleList: 1-43                       --                        (recursive)
│    └─gcn: 2-37                         [64, 32, 207, 6]          --
│    │    └─nconv: 3-29                  [64, 32, 207, 6]          --
│    │    └─nconv: 3-30                  [64, 32, 207, 6]          --
│    │    └─nconv: 3-31                  [64, 32, 207, 6]          --
│    │    └─nconv: 3-32                  [64, 32, 207, 6]          --
│    │    └─nconv: 3-33                  [64, 32, 207, 6]          --
│    │    └─nconv: 3-34                  [64, 32, 207, 6]          --
│    │    └─linear: 3-35                 [64, 32, 207, 6]          7,200
├─ModuleList: 1-44                       --                        (recursive)
│    └─BatchNorm2d: 2-38                 [64, 32, 207, 6]          64
├─ModuleList: 1-40                       --                        (recursive)
│    └─Conv2d: 2-39                      [64, 32, 207, 4]          2,080
├─ModuleList: 1-41                       --                        (recursive)
│    └─Conv2d: 2-40                      [64, 32, 207, 4]          2,080
├─ModuleList: 1-42                       --                        (recursive)
│    └─Conv2d: 2-41                      [64, 256, 207, 4]         8,448
├─ModuleList: 1-43                       --                        (recursive)
│    └─gcn: 2-42                         [64, 32, 207, 4]          --
│    │    └─nconv: 3-36                  [64, 32, 207, 4]          --
│    │    └─nconv: 3-37                  [64, 32, 207, 4]          --
│    │    └─nconv: 3-38                  [64, 32, 207, 4]          --
│    │    └─nconv: 3-39                  [64, 32, 207, 4]          --
│    │    └─nconv: 3-40                  [64, 32, 207, 4]          --
│    │    └─nconv: 3-41                  [64, 32, 207, 4]          --
│    │    └─linear: 3-42                 [64, 32, 207, 4]          7,200
├─ModuleList: 1-44                       --                        (recursive)
│    └─BatchNorm2d: 2-43                 [64, 32, 207, 4]          64
├─ModuleList: 1-40                       --                        (recursive)
│    └─Conv2d: 2-44                      [64, 32, 207, 3]          2,080
├─ModuleList: 1-41                       --                        (recursive)
│    └─Conv2d: 2-45                      [64, 32, 207, 3]          2,080
├─ModuleList: 1-42                       --                        (recursive)
│    └─Conv2d: 2-46                      [64, 256, 207, 3]         8,448
├─ModuleList: 1-43                       --                        (recursive)
│    └─gcn: 2-47                         [64, 32, 207, 3]          --
│    │    └─nconv: 3-43                  [64, 32, 207, 3]          --
│    │    └─nconv: 3-44                  [64, 32, 207, 3]          --
│    │    └─nconv: 3-45                  [64, 32, 207, 3]          --
│    │    └─nconv: 3-46                  [64, 32, 207, 3]          --
│    │    └─nconv: 3-47                  [64, 32, 207, 3]          --
│    │    └─nconv: 3-48                  [64, 32, 207, 3]          --
│    │    └─linear: 3-49                 [64, 32, 207, 3]          7,200
├─ModuleList: 1-44                       --                        (recursive)
│    └─BatchNorm2d: 2-48                 [64, 32, 207, 3]          64
├─ModuleList: 1-40                       --                        (recursive)
│    └─Conv2d: 2-49                      [64, 32, 207, 1]          2,080
├─ModuleList: 1-41                       --                        (recursive)
│    └─Conv2d: 2-50                      [64, 32, 207, 1]          2,080
├─ModuleList: 1-42                       --                        (recursive)
│    └─Conv2d: 2-51                      [64, 256, 207, 1]         8,448
├─ModuleList: 1-43                       --                        (recursive)
│    └─gcn: 2-52                         [64, 32, 207, 1]          --
│    │    └─nconv: 3-50                  [64, 32, 207, 1]          --
│    │    └─nconv: 3-51                  [64, 32, 207, 1]          --
│    │    └─nconv: 3-52                  [64, 32, 207, 1]          --
│    │    └─nconv: 3-53                  [64, 32, 207, 1]          --
│    │    └─nconv: 3-54                  [64, 32, 207, 1]          --
│    │    └─nconv: 3-55                  [64, 32, 207, 1]          --
│    │    └─linear: 3-56                 [64, 32, 207, 1]          7,200
├─ModuleList: 1-44                       --                        (recursive)
│    └─BatchNorm2d: 2-53                 [64, 32, 207, 1]          64
├─Conv2d: 1-45                           [64, 512, 207, 1]         131,584
├─Conv2d: 1-46                           [64, 12, 207, 1]          6,156
==========================================================================================
Total params: 367,382
Trainable params: 367,382
Non-trainable params: 0
Total mult-adds (G): 15.48
==========================================================================================
Input size (MB): 1.91
Forward/backward pass size (MB): 2259.79
Params size (MB): 1.31
Estimated Total Size (MB): 2263.01
…
