…
        "tanhalpha": 3,
        "layer_norm_affline": true,
        "node_emb_file": "../data/METRLA/spatial_embeddings.npz",
        "tod_embedding_dim": 24,
        "dow_embedding_dim": 7,
        "node_embedding_dim": 64,
        "learner_hidden_dim": 64,
        "z_dim": 64,
        "add_meta_adj": true
    }
}
==========================================================================================
Layer (type:depth-idx)                   Output Shape              Param #
==========================================================================================
MTGNN                                    [64, 12, 207, 1]          75,184
├─Sequential: 1-1                        [64, 207, 64]             --
│    └─Linear: 2-1                       [64, 207, 32]             416
│    └─Tanh: 2-2                         [64, 207, 32]             --
│    └─Linear: 2-3                       [64, 207, 32]             1,056
│    └─Tanh: 2-4                         [64, 207, 32]             --
│    └─Linear: 2-5                       [64, 207, 64]             2,112
├─Sequential: 1-2                        [64, 207, 64]             --
│    └─Linear: 2-6                       [64, 207, 32]             416
│    └─Tanh: 2-7                         [64, 207, 32]             --
│    └─Linear: 2-8                       [64, 207, 32]             1,056
│    └─Tanh: 2-9                         [64, 207, 32]             --
│    └─Linear: 2-10                      [64, 207, 64]             2,112
├─Sequential: 1-3                        [64, 207, 40]             --
│    └─Linear: 2-11                      [64, 207, 64]             10,240
│    └─ReLU: 2-12                        [64, 207, 64]             --
│    └─Linear: 2-13                      [64, 207, 40]             2,600
├─Conv2d: 1-4                            [64, 32, 207, 19]         96
├─Conv2d: 1-5                            [64, 64, 207, 1]          2,496
├─ModuleList: 1-18                       --                        (recursive)
│    └─dilated_inception: 2-14           [64, 32, 207, 13]         --
│    │    └─ModuleList: 3-1              --                        4,640
├─ModuleList: 1-19                       --                        (recursive)
│    └─dilated_inception: 2-15           [64, 32, 207, 13]         --
│    │    └─ModuleList: 3-2              --                        4,640
├─ModuleList: 1-20                       --                        (recursive)
│    └─Conv2d: 2-16                      [64, 64, 207, 1]          26,688
├─ModuleList: 1-21                       --                        (recursive)
│    └─mixprop: 2-17                     [64, 32, 207, 13]         --
│    │    └─nconv: 3-3                   [64, 32, 207, 13]         --
│    │    └─nconv: 3-4                   [64, 32, 207, 13]         --
│    │    └─linear: 3-5                  [64, 32, 207, 13]         3,104
├─ModuleList: 1-22                       --                        (recursive)
│    └─mixprop: 2-18                     [64, 32, 207, 13]         --
│    │    └─nconv: 3-6                   [64, 32, 207, 13]         --
│    │    └─nconv: 3-7                   [64, 32, 207, 13]         --
│    │    └─linear: 3-8                  [64, 32, 207, 13]         3,104
├─ModuleList: 1-23                       --                        (recursive)
│    └─LayerNorm: 2-19                   [64, 32, 207, 13]         172,224
├─ModuleList: 1-18                       --                        (recursive)
│    └─dilated_inception: 2-20           [64, 32, 207, 7]          --
│    │    └─ModuleList: 3-9              --                        4,640
├─ModuleList: 1-19                       --                        (recursive)
│    └─dilated_inception: 2-21           [64, 32, 207, 7]          --
│    │    └─ModuleList: 3-10             --                        4,640
├─ModuleList: 1-20                       --                        (recursive)
│    └─Conv2d: 2-22                      [64, 64, 207, 1]          14,400
├─ModuleList: 1-21                       --                        (recursive)
│    └─mixprop: 2-23                     [64, 32, 207, 7]          --
│    │    └─nconv: 3-11                  [64, 32, 207, 7]          --
│    │    └─nconv: 3-12                  [64, 32, 207, 7]          --
│    │    └─linear: 3-13                 [64, 32, 207, 7]          3,104
├─ModuleList: 1-22                       --                        (recursive)
│    └─mixprop: 2-24                     [64, 32, 207, 7]          --
│    │    └─nconv: 3-14                  [64, 32, 207, 7]          --
│    │    └─nconv: 3-15                  [64, 32, 207, 7]          --
│    │    └─linear: 3-16                 [64, 32, 207, 7]          3,104
├─ModuleList: 1-23                       --                        (recursive)
│    └─LayerNorm: 2-25                   [64, 32, 207, 7]          92,736
├─ModuleList: 1-18                       --                        (recursive)
│    └─dilated_inception: 2-26           [64, 32, 207, 1]          --
│    │    └─ModuleList: 3-17             --                        4,640
├─ModuleList: 1-19                       --                        (recursive)
│    └─dilated_inception: 2-27           [64, 32, 207, 1]          --
│    │    └─ModuleList: 3-18             --                        4,640
├─ModuleList: 1-20                       --                        (recursive)
│    └─Conv2d: 2-28                      [64, 64, 207, 1]          2,112
├─ModuleList: 1-21                       --                        (recursive)
│    └─mixprop: 2-29                     [64, 32, 207, 1]          --
│    │    └─nconv: 3-19                  [64, 32, 207, 1]          --
│    │    └─nconv: 3-20                  [64, 32, 207, 1]          --
│    │    └─linear: 3-21                 [64, 32, 207, 1]          3,104
├─ModuleList: 1-22                       --                        (recursive)
│    └─mixprop: 2-30                     [64, 32, 207, 1]          --
│    │    └─nconv: 3-22                  [64, 32, 207, 1]          --
│    │    └─nconv: 3-23                  [64, 32, 207, 1]          --
│    │    └─linear: 3-24                 [64, 32, 207, 1]          3,104
├─ModuleList: 1-23                       --                        (recursive)
│    └─LayerNorm: 2-31                   [64, 32, 207, 1]          13,248
├─Conv2d: 1-24                           [64, 64, 207, 1]          2,112
├─Conv2d: 1-25                           [64, 128, 207, 1]         8,320
├─Conv2d: 1-26                           [64, 12, 207, 1]          1,548
==========================================================================================
Total params: 477,636
Trainable params: 477,636
Non-trainable params: 0
Total mult-adds (G): 5.69
==========================================================================================
Input size (MB): 1.91
Forward/backward pass size (MB): 558.32
Params size (MB): 1.61
Estimated Total Size (MB): 561.84
==========================================================================================
…
