…
        "tanhalpha": 3,
        "layer_norm_affline": true,
        "node_emb_file": "../data/METRLA/spatial_embeddings.npz",
        "tod_embedding_dim": 24,
        "dow_embedding_dim": 7,
        "node_embedding_dim": 64,
        "learner_hidden_dim": 128,
        "z_dim": 64,
        "add_meta_adj": true
    }
}
==========================================================================================
Layer (type:depth-idx)                   Output Shape              Param #
==========================================================================================
MTGNN                                    [64, 12, 207, 1]          29,664
├─Sequential: 1-1                        [64, 207, 64]             --
│    └─Linear: 2-1                       [64, 207, 32]             416
│    └─Tanh: 2-2                         [64, 207, 32]             --
│    └─Linear: 2-3                       [64, 207, 32]             1,056
│    └─Tanh: 2-4                         [64, 207, 32]             --
│    └─Linear: 2-5                       [64, 207, 64]             2,112
├─Sequential: 1-2                        [64, 207, 64]             --
│    └─Linear: 2-6                       [64, 207, 32]             416
│    └─Tanh: 2-7                         [64, 207, 32]             --
│    └─Linear: 2-8                       [64, 207, 32]             1,056
│    └─Tanh: 2-9                         [64, 207, 32]             --
│    └─Linear: 2-10                      [64, 207, 64]             2,112
├─Sequential: 1-3                        [64, 207, 40]             --
│    └─Linear: 2-11                      [64, 207, 128]            20,480
│    └─ReLU: 2-12                        [64, 207, 128]            --
│    └─Linear: 2-13                      [64, 207, 40]             5,160
├─Sequential: 1-4                        [64, 207, 40]             --
│    └─Linear: 2-14                      [64, 207, 128]            20,480
│    └─ReLU: 2-15                        [64, 207, 128]            --
│    └─Linear: 2-16                      [64, 207, 40]             5,160
├─graph_constructor: 1-5                 [64, 207, 207]            1,640
│    └─Embedding: 2-17                   [207, 40]                 8,280
│    └─Embedding: 2-18                   [207, 40]                 8,280
│    └─Linear: 2-19                      [64, 207, 40]             1,640
│    └─Linear: 2-20                      [64, 207, 40]             (recursive)
├─Conv2d: 1-6                            [64, 32, 207, 19]         96
├─Conv2d: 1-7                            [64, 64, 207, 1]          2,496
├─ModuleList: 1-20                       --                        (recursive)
│    └─dilated_inception: 2-21           [64, 32, 207, 13]         --
│    │    └─ModuleList: 3-1              --                        4,640
├─ModuleList: 1-21                       --                        (recursive)
│    └─dilated_inception: 2-22           [64, 32, 207, 13]         --
│    │    └─ModuleList: 3-2              --                        4,640
├─ModuleList: 1-22                       --                        (recursive)
│    └─Conv2d: 2-23                      [64, 64, 207, 1]          26,688
├─ModuleList: 1-23                       --                        (recursive)
│    └─mixprop: 2-24                     [64, 32, 207, 13]         --
│    │    └─nconv: 3-3                   [64, 32, 207, 13]         --
│    │    └─nconv: 3-4                   [64, 32, 207, 13]         --
│    │    └─linear: 3-5                  [64, 32, 207, 13]         3,104
├─ModuleList: 1-24                       --                        (recursive)
│    └─mixprop: 2-25                     [64, 32, 207, 13]         --
│    │    └─nconv: 3-6                   [64, 32, 207, 13]         --
│    │    └─nconv: 3-7                   [64, 32, 207, 13]         --
│    │    └─linear: 3-8                  [64, 32, 207, 13]         3,104
├─ModuleList: 1-25                       --                        (recursive)
│    └─LayerNorm: 2-26                   [64, 32, 207, 13]         172,224
├─ModuleList: 1-20                       --                        (recursive)
│    └─dilated_inception: 2-27           [64, 32, 207, 7]          --
│    │    └─ModuleList: 3-9              --                        4,640
├─ModuleList: 1-21                       --                        (recursive)
│    └─dilated_inception: 2-28           [64, 32, 207, 7]          --
│    │    └─ModuleList: 3-10             --                        4,640
├─ModuleList: 1-22                       --                        (recursive)
│    └─Conv2d: 2-29                      [64, 64, 207, 1]          14,400
├─ModuleList: 1-23                       --                        (recursive)
│    └─mixprop: 2-30                     [64, 32, 207, 7]          --
│    │    └─nconv: 3-11                  [64, 32, 207, 7]          --
│    │    └─nconv: 3-12                  [64, 32, 207, 7]          --
│    │    └─linear: 3-13                 [64, 32, 207, 7]          3,104
├─ModuleList: 1-24                       --                        (recursive)
│    └─mixprop: 2-31                     [64, 32, 207, 7]          --
│    │    └─nconv: 3-14                  [64, 32, 207, 7]          --
│    │    └─nconv: 3-15                  [64, 32, 207, 7]          --
│    │    └─linear: 3-16                 [64, 32, 207, 7]          3,104
├─ModuleList: 1-25                       --                        (recursive)
│    └─LayerNorm: 2-32                   [64, 32, 207, 7]          92,736
├─ModuleList: 1-20                       --                        (recursive)
│    └─dilated_inception: 2-33           [64, 32, 207, 1]          --
│    │    └─ModuleList: 3-17             --                        4,640
├─ModuleList: 1-21                       --                        (recursive)
│    └─dilated_inception: 2-34           [64, 32, 207, 1]          --
│    │    └─ModuleList: 3-18             --                        4,640
├─ModuleList: 1-22                       --                        (recursive)
│    └─Conv2d: 2-35                      [64, 64, 207, 1]          2,112
├─ModuleList: 1-23                       --                        (recursive)
│    └─mixprop: 2-36                     [64, 32, 207, 1]          --
│    │    └─nconv: 3-19                  [64, 32, 207, 1]          --
│    │    └─nconv: 3-20                  [64, 32, 207, 1]          --
│    │    └─linear: 3-21                 [64, 32, 207, 1]          3,104
├─ModuleList: 1-24                       --                        (recursive)
│    └─mixprop: 2-37                     [64, 32, 207, 1]          --
│    │    └─nconv: 3-22                  [64, 32, 207, 1]          --
│    │    └─nconv: 3-23                  [64, 32, 207, 1]          --
│    │    └─linear: 3-24                 [64, 32, 207, 1]          3,104
├─ModuleList: 1-25                       --                        (recursive)
│    └─LayerNorm: 2-38                   [64, 32, 207, 1]          13,248
├─Conv2d: 1-26                           [64, 64, 207, 1]          2,112
├─Conv2d: 1-27                           [64, 128, 207, 1]         8,320
├─Conv2d: 1-28                           [64, 12, 207, 1]          1,548
==========================================================================================
Total params: 490,396
Trainable params: 490,396
Non-trainable params: 0
Total mult-adds (G): 5.70
==========================================================================================
Input size (MB): 1.91
Forward/backward pass size (MB): 587.28
Params size (MB): 1.84
Estimated Total Size (MB): 591.03
==========================================================================================
…
