…
        "input_dim": 1,
        "output_dim": 1,
        "input_embedding_dim": 32,
        "tod_embedding_dim": 32,
        "dow_embedding_dim": 32,
        "node_embedding_dim": 32,
        "adaptive_embedding_dim": 0,
        "num_layers": 3
    }
}
==========================================================================================
Layer (type:depth-idx)                   Output Shape              Param #
==========================================================================================
STID_Adp                                 --                        --
├─Linear: 1-1                            [64, 207, 32]             416
├─Embedding: 1-2                         [64, 207, 32]             9,216
├─Embedding: 1-3                         [64, 207, 32]             224
├─Sequential: 1-4                        [64, 128, 207, 1]         --
│    └─MultiLayerPerceptron: 2-1         [64, 128, 207, 1]         --
│    │    └─Conv2d: 3-1                  [64, 128, 207, 1]         16,512
│    │    └─ReLU: 3-2                    [64, 128, 207, 1]         --
│    │    └─Dropout: 3-3                 [64, 128, 207, 1]         --
│    │    └─Conv2d: 3-4                  [64, 128, 207, 1]         16,512
│    └─MultiLayerPerceptron: 2-2         [64, 128, 207, 1]         --
│    │    └─Conv2d: 3-5                  [64, 128, 207, 1]         16,512
│    │    └─ReLU: 3-6                    [64, 128, 207, 1]         --
│    │    └─Dropout: 3-7                 [64, 128, 207, 1]         --
│    │    └─Conv2d: 3-8                  [64, 128, 207, 1]         16,512
│    └─MultiLayerPerceptron: 2-3         [64, 128, 207, 1]         --
│    │    └─Conv2d: 3-9                  [64, 128, 207, 1]         16,512
│    │    └─ReLU: 3-10                   [64, 128, 207, 1]         --
│    │    └─Dropout: 3-11                [64, 128, 207, 1]         --
│    │    └─Conv2d: 3-12                 [64, 128, 207, 1]         16,512
├─Linear: 1-5                            [64, 1, 207, 12]          1,548
==========================================================================================
Total params: 110,476
Trainable params: 110,476
Non-trainable params: 0
Total mult-adds (G): 1.31
==========================================================================================
Input size (MB): 1.91
Forward/backward pass size (MB): 92.84
Params size (MB): 0.44
Estimated Total Size (MB): 95.19
==========================================================================================
…
