…
        "input_dim": 1,
        "output_dim": 1,
        "input_embedding_dim": 12,
        "tod_embedding_dim": 12,
        "dow_embedding_dim": 12,
        "node_embedding_dim": 36,
        "adaptive_embedding_dim": 0,
        "num_layers": 3
    }
}
==========================================================================================
Layer (type:depth-idx)                   Output Shape              Param #
==========================================================================================
STID_Adp                                 --                        --
├─Linear: 1-1                            [64, 12, 207, 12]         24
├─Embedding: 1-2                         [64, 12, 207, 12]         3,456
├─Embedding: 1-3                         [64, 12, 207, 12]         84
├─Sequential: 1-4                        [64, 72, 207, 12]         --
│    └─MultiLayerPerceptron: 2-1         [64, 72, 207, 12]         --
│    │    └─Conv2d: 3-1                  [64, 72, 207, 12]         5,256
│    │    └─ReLU: 3-2                    [64, 72, 207, 12]         --
│    │    └─Dropout: 3-3                 [64, 72, 207, 12]         --
│    │    └─Conv2d: 3-4                  [64, 72, 207, 12]         5,256
│    └─MultiLayerPerceptron: 2-2         [64, 72, 207, 12]         --
│    │    └─Conv2d: 3-5                  [64, 72, 207, 12]         5,256
│    │    └─ReLU: 3-6                    [64, 72, 207, 12]         --
│    │    └─Dropout: 3-7                 [64, 72, 207, 12]         --
│    │    └─Conv2d: 3-8                  [64, 72, 207, 12]         5,256
│    └─MultiLayerPerceptron: 2-3         [64, 72, 207, 12]         --
│    │    └─Conv2d: 3-9                  [64, 72, 207, 12]         5,256
│    │    └─ReLU: 3-10                   [64, 72, 207, 12]         --
│    │    └─Dropout: 3-11                [64, 72, 207, 12]         --
│    │    └─Conv2d: 3-12                 [64, 72, 207, 12]         5,256
├─Linear: 1-5                            [64, 72, 207, 12]         156
├─Linear: 1-6                            [64, 12, 207, 1]          73
==========================================================================================
Total params: 35,329
Trainable params: 35,329
Non-trainable params: 0
Total mult-adds (G): 5.01
==========================================================================================
Input size (MB): 1.91
Forward/backward pass size (MB): 688.05
Params size (MB): 0.14
Estimated Total Size (MB): 690.10
==========================================================================================
…
