…
├─ModuleList: 1-1                        --                        --
│    └─ModuleList: 2-1                   --                        --
│    └─ModuleList: 2-2                   --                        --
│    └─ModuleList: 2-3                   --                        --
├─ModuleList: 1-2                        --                        --
│    └─ModuleList: 2-4                   --                        --
│    └─ModuleList: 2-5                   --                        --
│    └─ModuleList: 2-6                   --                        --
├─Linear: 1-3                            [64, 12, 207, 12]         24
├─Embedding: 1-4                         [64, 12, 207, 12]         3,456
├─Embedding: 1-5                         [64, 12, 207, 12]         84
├─ModuleList: 1-1                        --                        --
│    └─ModuleList: 2-1                   --                        --
│    │    └─LayerNorm: 3-1               [64, 12, 207, 96]         192
│    │    └─Sequential: 3-2              [64, 12, 207, 96]         24,800
│    │    └─LayerNorm: 3-3               [64, 12, 207, 96]         192
│    └─ModuleList: 2-2                   --                        --
│    │    └─LayerNorm: 3-4               [64, 12, 207, 96]         192
│    │    └─Sequential: 3-5              [64, 12, 207, 96]         24,800
│    │    └─LayerNorm: 3-6               [64, 12, 207, 96]         192
│    └─ModuleList: 2-3                   --                        --
│    │    └─LayerNorm: 3-7               [64, 12, 207, 96]         192
│    │    └─Sequential: 3-8              [64, 12, 207, 96]         24,800
│    │    └─LayerNorm: 3-9               [64, 12, 207, 96]         192
├─ModuleList: 1-2                        --                        --
│    └─ModuleList: 2-4                   --                        --
│    │    └─LayerNorm: 3-10              [64, 12, 207, 96]         192
│    │    └─Sequential: 3-11             [64, 12, 207, 96]         24,800
│    │    └─LayerNorm: 3-12              [64, 12, 207, 96]         192
│    └─ModuleList: 2-5                   --                        --
│    │    └─LayerNorm: 3-13              [64, 12, 207, 96]         192
│    │    └─Sequential: 3-14             [64, 12, 207, 96]         24,800
│    │    └─LayerNorm: 3-15              [64, 12, 207, 96]         192
│    └─ModuleList: 2-6                   --                        --
│    │    └─LayerNorm: 3-16              [64, 12, 207, 96]         192
│    │    └─Sequential: 3-17             [64, 12, 207, 96]         24,800
│    │    └─LayerNorm: 3-18              [64, 12, 207, 96]         192
├─Linear: 1-6                            [64, 96, 207, 12]         156
├─Linear: 1-7                            [64, 12, 207, 1]          97
==========================================================================================
Total params: 154,921
Trainable params: 154,921
Non-trainable params: 0
Total mult-adds (M): 9.91
==========================================================================================
Input size (MB): 1.91
Forward/backward pass size (MB): 3343.58
Params size (MB): 0.62
Estimated Total Size (MB): 3346.11
…
