…
        "input_embedding_dim": 12,
        "tod_embedding_dim": 12,
        "dow_embedding_dim": 12,
        "adaptive_embedding_dim": 60,
        "feed_forward_dim": 128,
        "num_heads": 4,
        "num_layers": 3,
        "dropout": 0.1
    }
}
==========================================================================================
Layer (type:depth-idx)                   Output Shape              Param #
==========================================================================================
STAttention                              --                        --
├─Linear: 1-1                            [64, 12, 207, 12]         24
├─Embedding: 1-2                         [64, 12, 207, 12]         3,456
├─Embedding: 1-3                         [64, 12, 207, 12]         84
├─LayerNorm: 1-4                         [64, 12, 207, 96]         192
├─Sequential: 1-5                        [64, 12, 207, 96]         --
│    └─Linear: 2-1                       [64, 12, 207, 128]        12,416
│    └─ReLU: 2-2                         [64, 12, 207, 128]        --
│    └─Linear: 2-3                       [64, 12, 207, 96]         12,384
├─LayerNorm: 1-6                         [64, 12, 207, 96]         192
├─Linear: 1-7                            [64, 96, 207, 12]         156
├─Linear: 1-8                            [64, 12, 207, 1]          97
==========================================================================================
Total params: 29,001
Trainable params: 29,001
Non-trainable params: 0
Total mult-adds (M): 1.86
==========================================================================================
Input size (MB): 1.91
Forward/backward pass size (MB): 698.22
Params size (MB): 0.12
Estimated Total Size (MB): 700.25
==========================================================================================
…
