…
        "input_dim": 1,
        "output_dim": 1,
        "gru_hidden_dim": 32,
        "tod_embedding_dim": 24,
        "dow_embedding_dim": 7,
        "node_embedding_dim": 64,
        "learner_hidden_dim": 128,
        "z_dim": 32,
        "num_layers": 1,
        "seq2seq": true,
        "cheb_k": 3
    }
}
==========================================================================================
Layer (type:depth-idx)                   Output Shape              Param #
==========================================================================================
STMetaGCRU                               [64, 12, 207, 1]          13,248
├─Sequential: 1-1                        [64, 207, 32]             --
│    └─Linear: 2-1                       [64, 207, 32]             416
│    └─Tanh: 2-2                         [64, 207, 32]             --
│    └─Linear: 2-3                       [64, 207, 32]             1,056
│    └─Tanh: 2-4                         [64, 207, 32]             --
│    └─Linear: 2-5                       [64, 207, 32]             1,056
├─Sequential: 1-2                        [64, 207, 32]             --
│    └─Linear: 2-6                       [64, 207, 32]             416
│    └─Tanh: 2-7                         [64, 207, 32]             --
│    └─Linear: 2-8                       [64, 207, 32]             1,056
│    └─Tanh: 2-9                         [64, 207, 32]             --
│    └─Linear: 2-10                      [64, 207, 32]             1,056
├─Sequential: 1-3                        [64, 207, 12672]          --
│    └─Linear: 2-11                      [64, 207, 128]            16,384
│    └─ReLU: 2-12                        [64, 207, 128]            --
│    └─Linear: 2-13                      [64, 207, 12672]          1,634,688
├─Sequential: 1-4                        [64, 207, 64]             --
│    └─Linear: 2-14                      [64, 207, 128]            16,384
│    └─ReLU: 2-15                        [64, 207, 128]            --
│    └─Linear: 2-16                      [64, 207, 64]             8,256
├─Sequential: 1-5                        [64, 207, 6336]           --
│    └─Linear: 2-17                      [64, 207, 128]            16,384
│    └─ReLU: 2-18                        [64, 207, 128]            --
│    └─Linear: 2-19                      [64, 207, 6336]           817,344
├─Sequential: 1-6                        [64, 207, 32]             --
│    └─Linear: 2-20                      [64, 207, 128]            16,384
│    └─ReLU: 2-21                        [64, 207, 128]            --
│    └─Linear: 2-22                      [64, 207, 32]             4,128
├─ModuleList: 1-7                        --                        --
│    └─STMetaGCRUEncoder: 2-23           [64, 12, 207, 32]         2,529,952
│    │    └─STMetaGCRUCell: 3-1          [64, 207, 32]             --
│    │    └─STMetaGCRUCell: 3-2          [64, 207, 32]             --
│    │    └─STMetaGCRUCell: 3-3          [64, 207, 32]             --
│    │    └─STMetaGCRUCell: 3-4          [64, 207, 32]             --
│    │    └─STMetaGCRUCell: 3-5          [64, 207, 32]             --
│    │    └─STMetaGCRUCell: 3-6          [64, 207, 32]             --
│    │    └─STMetaGCRUCell: 3-7          [64, 207, 32]             --
│    │    └─STMetaGCRUCell: 3-8          [64, 207, 32]             --
│    │    └─STMetaGCRUCell: 3-9          [64, 207, 32]             --
│    │    └─STMetaGCRUCell: 3-10         [64, 207, 32]             --
│    │    └─STMetaGCRUCell: 3-11         [64, 207, 32]             --
│    │    └─STMetaGCRUCell: 3-12         [64, 207, 32]             --
├─Decoder: 1-8                           [64, 207, 32]             --
│    └─ModuleList: 2-46                  --                        (recursive)
│    │    └─GRUCell: 3-13                [64, 207, 32]             19,104
├─Sequential: 1-9                        [64, 207, 1]              --
│    └─Linear: 2-25                      [64, 207, 1]              33
├─Decoder: 1-10                          [64, 207, 32]             (recursive)
│    └─ModuleList: 2-46                  --                        (recursive)
│    │    └─GRUCell: 3-14                [64, 207, 32]             (recursive)
├─Sequential: 1-11                       [64, 207, 1]              (recursive)
│    └─Linear: 2-27                      [64, 207, 1]              (recursive)
├─Decoder: 1-12                          [64, 207, 32]             (recursive)
…
