…
        "input_dim": 1,
        "output_dim": 1,
        "gru_hidden_dim": 32,
        "tod_embedding_dim": 24,
        "dow_embedding_dim": 7,
        "node_embedding_dim": 64,
        "learner_hidden_dim": 128,
        "z_dim": 32,
        "num_layers": 1,
        "seq2seq": false,
        "cheb_k": 3
    }
}
==========================================================================================
Layer (type:depth-idx)                   Output Shape              Param #
==========================================================================================
STMetaGCRU                               [64, 12, 207, 1]          13,248
├─Sequential: 1-1                        [64, 207, 32]             --
│    └─Linear: 2-1                       [64, 207, 32]             416
│    └─Tanh: 2-2                         [64, 207, 32]             --
│    └─Linear: 2-3                       [64, 207, 32]             1,056
│    └─Tanh: 2-4                         [64, 207, 32]             --
│    └─Linear: 2-5                       [64, 207, 32]             1,056
├─Sequential: 1-2                        [64, 207, 32]             --
│    └─Linear: 2-6                       [64, 207, 32]             416
│    └─Tanh: 2-7                         [64, 207, 32]             --
│    └─Linear: 2-8                       [64, 207, 32]             1,056
│    └─Tanh: 2-9                         [64, 207, 32]             --
│    └─Linear: 2-10                      [64, 207, 32]             1,056
├─ModuleList: 1-3                        --                        --
│    └─STMetaGCRUEncoder: 2-11           [64, 12, 207, 32]         --
│    │    └─Sequential: 3-1              [64, 207, 12672]          1,651,072
│    │    └─Sequential: 3-2              [64, 207, 64]             24,640
│    │    └─Sequential: 3-3              [64, 207, 6336]           833,728
│    │    └─Sequential: 3-4              [64, 207, 32]             20,512
│    │    └─STMetaGCRUCell: 3-5          [64, 207, 32]             --
│    │    └─STMetaGCRUCell: 3-6          [64, 207, 32]             --
│    │    └─STMetaGCRUCell: 3-7          [64, 207, 32]             --
│    │    └─STMetaGCRUCell: 3-8          [64, 207, 32]             --
│    │    └─STMetaGCRUCell: 3-9          [64, 207, 32]             --
│    │    └─STMetaGCRUCell: 3-10         [64, 207, 32]             --
│    │    └─STMetaGCRUCell: 3-11         [64, 207, 32]             --
│    │    └─STMetaGCRUCell: 3-12         [64, 207, 32]             --
│    │    └─STMetaGCRUCell: 3-13         [64, 207, 32]             --
│    │    └─STMetaGCRUCell: 3-14         [64, 207, 32]             --
│    │    └─STMetaGCRUCell: 3-15         [64, 207, 32]             --
│    │    └─STMetaGCRUCell: 3-16         [64, 207, 32]             --
├─Linear: 1-4                            [64, 207, 12]             396
==========================================================================================
Total params: 2,548,652
Trainable params: 2,548,652
Non-trainable params: 0
Total mult-adds (M): 162.27
==========================================================================================
Input size (MB): 1.91
Forward/backward pass size (MB): 2100.60
Params size (MB): 10.14
Estimated Total Size (MB): 2112.65
…
